…
e2.bias', 'bert.encoder.v_layer.5.attention.self.key.bias', 'bert.encoder.v_layer.0.attention.output.dense.bias']
You should probably TRAIN this model on a down-stream task to be able to use it for predictions and inference.
2023-04-08T18:55:56 | mmf.trainers.mmf_trainer: Loading optimizer
2023-04-08T18:55:56 | mmf.trainers.mmf_trainer: Loading metrics
2023-04-08T18:55:57 | mmf.trainers.mmf_trainer: ===== Model =====
2023-04-08T18:55:57 | mmf.trainers.mmf_trainer: ViLBERT(
  (model): ViLBERTForClassification(
    (bert): ViLBERTBase(
      (embeddings): BertEmbeddings(
        (word_embeddings): Embedding(30522, 768, padding_idx=0)
        (position_embeddings): Embedding(512, 768)
        (token_type_embeddings): Embedding(2, 768)
        (LayerNorm): LayerNorm((768,), eps=1e-12, elementwise_affine=True)
        (dropout): Dropout(p=0.1, inplace=False)
      )
      (v_embeddings): BertImageFeatureEmbeddings(
        (image_embeddings): Linear(in_features=2048, out_features=1024, bias=True)
        (image_location_embeddings): Linear(in_features=5, out_features=1024, bias=True)
        (LayerNorm): LayerNorm((1024,), eps=1e-12, elementwise_affine=True)
        (dropout): Dropout(p=0.1, inplace=False)
      )
      (encoder): BertEncoder(
        (layer): ModuleList(
          (0-11): 12 x BertLayer(
            (attention): BertAttention(
              (self): BertSelfAttention(
                (query): Linear(in_features=768, out_features=768, bias=True)
                (key): Linear(in_features=768, out_features=768, bias=True)
                (value): Linear(in_features=768, out_features=768, bias=True)
                (dropout): Dropout(p=0.1, inplace=False)
              )
              (output): BertSelfOutput(
                (dense): Linear(in_features=768, out_features=768, bias=True)
                (LayerNorm): LayerNorm((768,), eps=1e-12, elementwise_affine=True)
                (dropout): Dropout(p=0.1, inplace=False)
              )
            )
            (intermediate): BertIntermediate(
              (dense): Linear(in_features=768, out_features=3072, bias=True)
            )
            (output): BertOutput(
              (dense): Linear(in_features=3072, out_features=768, bias=True)
              (LayerNorm): LayerNorm((768,), eps=1e-12, elementwise_affine=True)
              (dropout): Dropout(p=0.1, inplace=False)
            )
          )
        )
        (v_layer): ModuleList(
          (0-5): 6 x BertImageLayer(
            (attention): BertImageAttention(
              (self): BertImageSelfAttention(
                (query): Linear(in_features=1024, out_features=1024, bias=True)
                (key): Linear(in_features=1024, out_features=1024, bias=True)
                (value): Linear(in_features=1024, out_features=1024, bias=True)
                (dropout): Dropout(p=0.1, inplace=False)
              )
              (output): BertImageSelfOutput(
                (dense): Linear(in_features=1024, out_features=1024, bias=True)
                (LayerNorm): LayerNorm((1024,), eps=1e-12, elementwise_affine=True)
                (dropout): Dropout(p=0.1, inplace=False)
              )
            )
            (intermediate): BertImageIntermediate(
              (dense): Linear(in_features=1024, out_features=1024, bias=True)
            )
            (output): BertImageOutput(
              (dense): Linear(in_features=1024, out_features=1024, bias=True)
              (LayerNorm): LayerNorm((1024,), eps=1e-12, elementwise_affine=True)
              (dropout): Dropout(p=0.1, inplace=False)
            )
          )
        )
        (c_layer): ModuleList(
          (0-5): 6 x BertConnectionLayer(
            (biattention): BertBiAttention(
              (query1): Linear(in_features=1024, out_features=1024, bias=True)
              (key1): Linear(in_features=1024, out_features=1024, bias=True)
              (value1): Linear(in_features=1024, out_features=1024, bias=True)
              (dropout1): Dropout(p=0.1, inplace=False)
              (query2): Linear(in_features=768, out_features=1024, bias=True)
              (key2): Linear(in_features=768, out_features=1024, bias=True)
              (value2): Linear(in_features=768, out_features=1024, bias=True)
              (dropout2): Dropout(p=0.1, inplace=False)
            )
            (biOutput): BertBiOutput(
              (dense1): Linear(in_features=1024, out_features=1024, bias=True)
              (LayerNorm1): LayerNorm((1024,), eps=1e-12, elementwise_affine=True)
              (dropout1): Dropout(p=0.1, inplace=False)
              (q_dense1): Linear(in_features=1024, out_features=1024, bias=True)
              (q_dropout1): Dropout(p=0.1, inplace=False)
              (dense2): Linear(in_features=1024, out_features=768, bias=True)
              (LayerNorm2): LayerNorm((768,), eps=1e-12, elementwise_affine=True)
              (dropout2): Dropout(p=0.1, inplace=False)
              (q_dense2): Linear(in_features=1024, out_features=768, bias=True)
              (q_dropout2): Dropout(p=0.1, inplace=False)
            )
            (v_intermediate): BertImageIntermediate(
              (dense): Linear(in_features=1024, out_features=1024, bias=True)
            )
            (v_output): BertImageOutput(
              (dense): Linear(in_features=1024, out_features=1024, bias=True)
              (LayerNorm): LayerNorm((1024,), eps=1e-12, elementwise_affine=True)
              (dropout): Dropout(p=0.1, inplace=False)
            )
            (t_intermediate): BertIntermediate(
              (dense): Linear(in_features=768, out_features=3072, bias=True)
            )
            (t_output): BertOutput(
              (dense): Linear(in_features=3072, out_features=768, bias=True)
              (LayerNorm): LayerNorm((768,), eps=1e-12, elementwise_affine=True)
              (dropout): Dropout(p=0.1, inplace=False)
            )
          )
        )
      )
      (t_pooler): BertTextPooler(
        (dense): Linear(in_features=768, out_features=1024, bias=True)
        (activation): ReLU()
      )
      (v_pooler): BertImagePooler(
        (dense): Linear(in_features=1024, out_features=1024, bias=True)
        (activation): ReLU()
      )
    )
    (dropout): Dropout(p=0.1, inplace=False)
    (classifier): Sequential(
      (0): BertPredictionHeadTransform(
        (dense): Linear(in_features=1024, out_features=1024, bias=True)
        (LayerNorm): LayerNorm((1024,), eps=1e-12, elementwise_affine=True)
      )
      (1): Linear(in_features=1024, out_features=2, bias=True)
    )
  )
  (losses): Losses(
    (losses): ModuleList(
      (0): MMFLoss(
        (loss_criterion): CrossEntropyLoss(
          (loss_fn): CrossEntropyLoss()
        )
      )
    )
  )
)
2023-04-08T18:55:57 | mmf.utils.general: Total Parameters: 247780354. Trained Parameters: 247780354
2023-04-08T18:55:57 | mmf.trainers.core.training_loop: Starting training...
…
